onnx_protobuf ir_version: 6
producer_name: "tf2onnx"
producer_version: "1.5.5"
graph {
  node {
    input: "input:0"
    input: "new_shape__13"
    output: "convd1_1/Conv2D__6:0"
    name: "convd1_1/Conv2D__6"
    op_type: "Reshape"
    domain: ""
  }
  node {
    input: "convd1_1/Conv2D__6:0"
    input: "convd1_1/kernel:0"
    input: "convd1_1/bias:0"
    output: "Conv__11:0"
    name: "Conv__11"
    op_type: "Conv"
    attribute {
      name: "dilations"
      ints: 1
      ints: 1
      type: INTS
    }
    attribute {
      name: "strides"
      ints: 2
      ints: 2
      type: INTS
    }
    attribute {
      name: "kernel_shape"
      ints: 5
      ints: 5
      type: INTS
    }
    attribute {
      name: "pads"
      ints: 1
      ints: 1
      ints: 2
      ints: 2
      type: INTS
    }
    domain: ""
  }
  node {
    input: "Conv__11:0"
    output: "convd1_1/Conv2D__8:0"
    name: "convd1_1/Conv2D__8"
    op_type: "Transpose"
    attribute {
      name: "perm"
      ints: 0
      ints: 2
      ints: 3
      ints: 1
      type: INTS
    }
  }
  node {
    input: "convd1_1/Conv2D__8:0"
    input: "convd1_1/Conv2D__8:0"
    output: "activation/mul:0"
    name: "activation/mul"
    op_type: "Mul"
  }
  node {
    input: "activation/mul:0"
    input: "const_fold_opt__15"
    output: "Reshape:0"
    name: "Reshape"
    op_type: "Reshape"
  }
  node {
    input: "Reshape:0"
    input: "squash_fc_1/kernel:0"
    output: "squash_fc_1/MatMul:0"
    name: "squash_fc_1/MatMul"
    op_type: "MatMul"
  }
  node {
    input: "squash_fc_1/MatMul:0"
    input: "squash_fc_1/bias:0"
    output: "squash_fc_1/BiasAdd:0"
    name: "squash_fc_1/BiasAdd"
    op_type: "Add"
  }
  node {
    input: "squash_fc_1/BiasAdd:0"
    input: "squash_fc_1/BiasAdd:0"
    output: "activation_1/mul:0"
    name: "activation_1/mul"
    op_type: "Mul"
  }
  node {
    input: "activation_1/mul:0"
    input: "output/kernel:0"
    output: "output/MatMul:0"
    name: "output/MatMul"
    op_type: "MatMul"
  }
  node {
    input: "output/MatMul:0"
    input: "output/bias:0"
    output: "output/BiasAdd:0"
    name: "output/BiasAdd"
    op_type: "Add"
    domain: ""
  }
  name: "tf2onnx"
  initializer {
    dims: 980
    dims: 100
    data_type: 1
    name: "squash_fc_1/kernel:0"
    raw_data: "…"
  }
  initializer {
    dims: 100
    data_type: 1
    name: "squash_fc_1/bias:0"
    raw_data: "…"
  }
  initializer {
    dims: 100
    dims: 10
    data_type: 1
    name: "output/kernel:0"
    raw_data: "…"
  }
  initializer {
    dims: 10
    data_type: 1
    name: "output/bias:0"
    raw_data: "…"
  }
  initializer {
    dims: 4
    data_type: 7
    name: "new_shape__13"
    raw_data: "…"
  }
  initializer {
    dims: 5
    dims: 1
    dims: 5
    dims: 5
    data_type: 1
    name: "convd1_1/kernel:0"
    raw_data: "…"
  }
  initializer {
    dims: 5
    data_type: 1
    name: "convd1_1/bias:0"
    raw_data: "\354~h\273+/\262\275\236\246\214\276(\210\004=\356\252\014\276"
  }
  initializer {
    dims: 2
    data_type: 7
    name: "const_fold_opt__15"
    raw_data: "\377\377\377\377\377\377\377\377\324\003\000\000\000\000\000\000"
  }
  doc_string: "converted from cryptonets.pb"
  input {
    name: "input:0"
    type {
      tensor_type {
        elem_type: 1
        shape {
          dim {
            dim_param: "10"
          }
          dim {
            dim_value: 28
          }
          dim {
            dim_value: 28
          }
          dim {
            dim_value: 1
          }
        }
      }
    }
  }
  input {
    name: "squash_fc_1/kernel:0"
    type {
      tensor_type {
        elem_type: 1
        shape {
          dim {
            dim_value: 980
          }
          dim {
            dim_value: 100
          }
        }
      }
    }
  }
  input {
    name: "squash_fc_1/bias:0"
    type {
      tensor_type {
        elem_type: 1
        shape {
          dim {
            dim_value: 100
          }
        }
      }
    }
  }
  input {
    name: "output/kernel:0"
    type {
      tensor_type {
        elem_type: 1
        shape {
          dim {
            dim_value: 100
          }
          dim {
            dim_value: 10
          }
        }
      }
    }
  }
  input {
    name: "output/bias:0"
    type {
      tensor_type {
        elem_type: 1
        shape {
          dim {
            dim_value: 10
          }
        }
      }
    }
  }
  input {
    name: "new_shape__13"
    type {
      tensor_type {
        elem_type: 7
        shape {
          dim {
            dim_value: 4
          }
        }
      }
    }
  }
  input {
    name: "convd1_1/kernel:0"
    type {
      tensor_type {
        elem_type: 1
        shape {
          dim {
            dim_value: 5
          }
          dim {
            dim_value: 1
          }
          dim {
            dim_value: 5
          }
          dim {
            dim_value: 5
          }
        }
      }
    }
  }
  input {
    name: "convd1_1/bias:0"
    type {
      tensor_type {
        elem_type: 1
        shape {
          dim {
            dim_value: 5
          }
        }
      }
    }
  }
  input {
    name: "const_fold_opt__15"
    type {
      tensor_type {
        elem_type: 7
        shape {
          dim {
            dim_value: 2
          }
        }
      }
    }
  }
  output {
    name: "output/BiasAdd:0"
    type {
      tensor_type {
        elem_type: 1
        shape {
          dim {
            dim_param: "10"
          }
          dim {
            dim_value: 10
          }
        }
      }
    }
  }
}
opset_import {
  version: 8
}
